Model: "WalkModel"
_________________________________________________________________
Layer (type)                 Output Shape              Param #   
=================================================================
input_4 (InputLayer)         [(None, 100, 3)]          0         
_________________________________________________________________
tf_op_layer_strided_slice_3  [(None, 99, 3)]           0         
_________________________________________________________________
dense_9 (Dense)              (None, 99, 128)           512       
_________________________________________________________________
instance_normalization_6 (In (None, 99, 128)           256       
_________________________________________________________________
tf_op_layer_Relu_6 (TensorFl [(None, 99, 128)]         0         
_________________________________________________________________
dense_10 (Dense)             (None, 99, 256)           33024     
_________________________________________________________________
instance_normalization_7 (In (None, 99, 256)           512       
_________________________________________________________________
tf_op_layer_Relu_7 (TensorFl [(None, 99, 256)]         0         
_________________________________________________________________
gru_9 (GRU)                  (None, 99, 1024)          3938304   
_________________________________________________________________
gru_10 (GRU)                 (None, 99, 1024)          6297600   
_________________________________________________________________
gru_11 (GRU)                 (None, 99, 512)           2362368   
_________________________________________________________________
dense_11 (Dense)             (None, 99, 9)             4617      
=================================================================
Total params: 12,637,193
Trainable params: 12,637,193
Non-trainable params: 0
_________________________________________________________________
Accuracy: [63.32 76.65]%, Iter: 10010
Accuracy: [79.84 92.36]%, Iter: 20020
Accuracy: [84.61 95.31]%, Iter: 40007
Accuracy: [86.3  95.91]%, Iter: 60005
Accuracy: [87.42 96.64]%, Iter: 80003
…
